…
e', '--ngpu', '1', '--multiprocessing_distributed', 'True']' returned non-zero exit status 1.
Traceback (most recent call last):
  File "<frozen runpy>", line 198, in _run_module_as_main
  File "<frozen runpy>", line 88, in _run_code
  File "/work/hdd/bbjs/clin10/bootcamp/espnet/espnet2/bin/launch.py", line 384, in <module>
    main()
  File "/work/hdd/bbjs/clin10/bootcamp/espnet/espnet2/bin/launch.py", line 375, in main
    raise RuntimeError(
RuntimeError: 
################### The last 1000 lines of exp/s2t_owsm_ctc_lr001_raw_en_bpe50000/train.log ###################
        (norm_cross_attn): LayerNorm((1024,), eps=1e-12, elementwise_affine=True)
        (dropout): Dropout(p=0.1, inplace=False)
        (depthwise_conv_fusion): Conv1d(2048, 2048, kernel_size=(31,), stride=(1,), padding=(15,), groups=2048)
        (merge_proj): Linear(in_features=2048, out_features=1024, bias=True)
      )
      (12): EBranchformerEncoderLayer(
        (attn): MultiHeadedAttention(
          (linear_q): Linear(in_features=1024, out_features=1024, bias=True)
          (linear_k): Linear(in_features=1024, out_features=1024, bias=True)
          (linear_v): Linear(in_features=1024, out_features=1024, bias=True)
          (linear_out): Linear(in_features=1024, out_features=1024, bias=True)
          (dropout): Identity()
          (q_norm): Identity()
          (k_norm): Identity()
        )
        (cgmlp): ConvolutionalGatingMLP(
          (channel_proj1): Sequential(
            (0): Linear(in_features=1024, out_features=4096, bias=True)
            (1): GELU(approximate='none')
          )
          (csgu): ConvolutionalSpatialGatingUnit(
            (norm): LayerNorm((2048,), eps=1e-12, elementwise_affine=True)
            (conv): Conv1d(2048, 2048, kernel_size=(31,), stride=(1,), padding=(15,), groups=2048)
            (act): Identity()
            (dropout): Dropout(p=0.1, inplace=False)
          )
          (channel_proj2): Linear(in_features=2048, out_features=1024, bias=True)
        )
        (feed_forward): PositionwiseFeedForward(
          (w_1): Linear(in_features=1024, out_features=4096, bias=True)
          (w_2): Linear(in_features=4096, out_features=1024, bias=True)
          (dropout): Dropout(p=0.1, inplace=False)
          (activation): Swish()
        )
        (feed_forward_macaron): PositionwiseFeedForward(
          (w_1): Linear(in_features=1024, out_features=4096, bias=True)
          (w_2): Linear(in_features=4096, out_features=1024, bias=True)
          (dropout): Dropout(p=0.1, inplace=False)
          (activation): Swish()
        )
        (norm_ff): LayerNorm((1024,), eps=1e-12, elementwise_affine=True)
        (norm_ff_macaron): LayerNorm((1024,), eps=1e-12, elementwise_affine=True)
        (norm_mha): LayerNorm((1024,), eps=1e-12, elementwise_affine=True)
        (norm_mlp): LayerNorm((1024,), eps=1e-12, elementwise_affine=True)
        (norm_final): LayerNorm((1024,), eps=1e-12, elementwise_affine=True)
        (dropout): Dropout(p=0.1, inplace=False)
        (depthwise_conv_fusion): Conv1d(2048, 2048, kernel_size=(31,), stride=(1,), padding=(15,), groups=2048)
        (merge_proj): Linear(in_features=2048, out_features=1024, bias=True)
      )
      (13): EBranchformerEncoderLayer(
        (attn): MultiHeadedAttention(
          (linear_q): Linear(in_features=1024, out_features=1024, bias=True)
          (linear_k): Linear(in_features=1024, out_features=1024, bias=True)
          (linear_v): Linear(in_features=1024, out_features=1024, bias=True)
          (linear_out): Linear(in_features=1024, out_features=1024, bias=True)
          (dropout): Identity()
          (q_norm): Identity()
          (k_norm): Identity()
        )
        (cgmlp): ConvolutionalGatingMLP(
          (channel_proj1): Sequential(
            (0): Linear(in_features=1024, out_features=4096, bias=True)
            (1): GELU(approximate='none')
          )
          (csgu): ConvolutionalSpatialGatingUnit(
            (norm): LayerNorm((2048,), eps=1e-12, elementwise_affine=True)
            (conv): Conv1d(2048, 2048, kernel_size=(31,), stride=(1,), padding=(15,), groups=2048)
            (act): Identity()
            (dropout): Dropout(p=0.1, inplace=False)
          )
          (channel_proj2): Linear(in_features=2048, out_features=1024, bias=True)
        )
        (feed_forward): PositionwiseFeedForward(
          (w_1): Linear(in_features=1024, out_features=4096, bias=True)
          (w_2): Linear(in_features=4096, out_features=1024, bias=True)
          (dropout): Dropout(p=0.1, inplace=False)
          (activation): Swish()
        )
        (feed_forward_macaron): PositionwiseFeedForward(
          (w_1): Linear(in_features=1024, out_features=4096, bias=True)
          (w_2): Linear(in_features=4096, out_features=1024, bias=True)
          (dropout): Dropout(p=0.1, inplace=False)
          (activation): Swish()
        )
        (norm_ff): LayerNorm((1024,), eps=1e-12, elementwise_affine=True)
        (norm_ff_macaron): LayerNorm((1024,), eps=1e-12, elementwise_affine=True)
        (norm_mha): LayerNorm((1024,), eps=1e-12, elementwise_affine=True)
        (norm_mlp): LayerNorm((1024,), eps=1e-12, elementwise_affine=True)
        (norm_final): LayerNorm((1024,), eps=1e-12, elementwise_affine=True)
        (dropout): Dropout(p=0.1, inplace=False)
        (depthwise_conv_fusion): Conv1d(2048, 2048, kernel_size=(31,), stride=(1,), padding=(15,), groups=2048)
        (merge_proj): Linear(in_features=2048, out_features=1024, bias=True)
      )
      (14): EBranchformerEncoderLayer(
        (attn): MultiHeadedAttention(
          (linear_q): Linear(in_features=1024, out_features=1024, bias=True)
          (linear_k): Linear(in_features=1024, out_features=1024, bias=True)
          (linear_v): Linear(in_features=1024, out_features=1024, bias=True)
          (linear_out): Linear(in_features=1024, out_features=1024, bias=True)
          (dropout): Identity()
          (q_norm): Identity()
          (k_norm): Identity()
        )
        (cgmlp): ConvolutionalGatingMLP(
          (channel_proj1): Sequential(
            (0): Linear(in_features=1024, out_features=4096, bias=True)
            (1): GELU(approximate='none')
          )
          (csgu): ConvolutionalSpatialGatingUnit(
            (norm): LayerNorm((2048,), eps=1e-12, elementwise_affine=True)
            (conv): Conv1d(2048, 2048, kernel_size=(31,), stride=(1,), padding=(15,), groups=2048)
            (act): Identity()
            (dropout): Dropout(p=0.1, inplace=False)
          )
          (channel_proj2): Linear(in_features=2048, out_features=1024, bias=True)
        )
        (feed_forward): PositionwiseFeedForward(
          (w_1): Linear(in_features=1024, out_features=4096, bias=True)
          (w_2): Linear(in_features=4096, out_features=1024, bias=True)
          (dropout): Dropout(p=0.1, inplace=False)
          (activation): Swish()
        )
        (feed_forward_macaron): PositionwiseFeedForward(
          (w_1): Linear(in_features=1024, out_features=4096, bias=True)
          (w_2): Linear(in_features=4096, out_features=1024, bias=True)
          (dropout): Dropout(p=0.1, inplace=False)
          (activation): Swish()
        )
        (norm_ff): LayerNorm((1024,), eps=1e-12, elementwise_affine=True)
        (norm_ff_macaron): LayerNorm((1024,), eps=1e-12, elementwise_affine=True)
        (norm_mha): LayerNorm((1024,), eps=1e-12, elementwise_affine=True)
        (norm_mlp): LayerNorm((1024,), eps=1e-12, elementwise_affine=True)
        (norm_final): LayerNorm((1024,), eps=1e-12, elementwise_affine=True)
        (cross_attn): MultiHeadedAttention(
          (linear_q): Linear(in_features=1024, out_features=1024, bias=True)
          (linear_k): Linear(in_features=1024, out_features=1024, bias=True)
          (linear_v): Linear(in_features=1024, out_features=1024, bias=True)
          (linear_out): Linear(in_features=1024, out_features=1024, bias=True)
          (dropout): Identity()
          (q_norm): Identity()
          (k_norm): Identity()
        )
        (norm_cross_attn): LayerNorm((1024,), eps=1e-12, elementwise_affine=True)
        (dropout): Dropout(p=0.1, inplace=False)
        (depthwise_conv_fusion): Conv1d(2048, 2048, kernel_size=(31,), stride=(1,), padding=(15,), groups=2048)
        (merge_proj): Linear(in_features=2048, out_features=1024, bias=True)
      )
      (15): EBranchformerEncoderLayer(
        (attn): MultiHeadedAttention(
          (linear_q): Linear(in_features=1024, out_features=1024, bias=True)
          (linear_k): Linear(in_features=1024, out_features=1024, bias=True)
          (linear_v): Linear(in_features=1024, out_features=1024, bias=True)
          (linear_out): Linear(in_features=1024, out_features=1024, bias=True)
          (dropout): Identity()
          (q_norm): Identity()
          (k_norm): Identity()
        )
        (cgmlp): ConvolutionalGatingMLP(
          (channel_proj1): Sequential(
            (0): Linear(in_features=1024, out_features=4096, bias=True)
            (1): GELU(approximate='none')
          )
          (csgu): ConvolutionalSpatialGatingUnit(
            (norm): LayerNorm((2048,), eps=1e-12, elementwise_affine=True)
            (conv): Conv1d(2048, 2048, kernel_size=(31,), stride=(1,), padding=(15,), groups=2048)
            (act): Identity()
            (dropout): Dropout(p=0.1, inplace=False)
          )
          (channel_proj2): Linear(in_features=2048, out_features=1024, bias=True)
        )
        (feed_forward): PositionwiseFeedForward(
          (w_1): Linear(in_features=1024, out_features=4096, bias=True)
          (w_2): Linear(in_features=4096, out_features=1024, bias=True)
          (dropout): Dropout(p=0.1, inplace=False)
          (activation): Swish()
        )
        (feed_forward_macaron): PositionwiseFeedForward(
          (w_1): Linear(in_features=1024, out_features=4096, bias=True)
          (w_2): Linear(in_features=4096, out_features=1024, bias=True)
          (dropout): Dropout(p=0.1, inplace=False)
          (activation): Swish()
        )
        (norm_ff): LayerNorm((1024,), eps=1e-12, elementwise_affine=True)
        (norm_ff_macaron): LayerNorm((1024,), eps=1e-12, elementwise_affine=True)
        (norm_mha): LayerNorm((1024,), eps=1e-12, elementwise_affine=True)
        (norm_mlp): LayerNorm((1024,), eps=1e-12, elementwise_affine=True)
        (norm_final): LayerNorm((1024,), eps=1e-12, elementwise_affine=True)
        (dropout): Dropout(p=0.1, inplace=False)
        (depthwise_conv_fusion): Conv1d(2048, 2048, kernel_size=(31,), stride=(1,), padding=(15,), groups=2048)
        (merge_proj): Linear(in_features=2048, out_features=1024, bias=True)
      )
      (16): EBranchformerEncoderLayer(
        (attn): MultiHeadedAttention(
          (linear_q): Linear(in_features=1024, out_features=1024, bias=True)
          (linear_k): Linear(in_features=1024, out_features=1024, bias=True)
          (linear_v): Linear(in_features=1024, out_features=1024, bias=True)
          (linear_out): Linear(in_features=1024, out_features=1024, bias=True)
          (dropout): Identity()
          (q_norm): Identity()
          (k_norm): Identity()
        )
        (cgmlp): ConvolutionalGatingMLP(
          (channel_proj1): Sequential(
            (0): Linear(in_features=1024, out_features=4096, bias=True)
            (1): GELU(approximate='none')
          )
          (csgu): ConvolutionalSpatialGatingUnit(
            (norm): LayerNorm((2048,), eps=1e-12, elementwise_affine=True)
            (conv): Conv1d(2048, 2048, kernel_size=(31,), stride=(1,), padding=(15,), groups=2048)
            (act): Identity()
            (dropout): Dropout(p=0.1, inplace=False)
          )
          (channel_proj2): Linear(in_features=2048, out_features=1024, bias=True)
        )
        (feed_forward): PositionwiseFeedForward(
          (w_1): Linear(in_features=1024, out_features=4096, bias=True)
          (w_2): Linear(in_features=4096, out_features=1024, bias=True)
          (dropout): Dropout(p=0.1, inplace=False)
          (activation): Swish()
        )
        (feed_forward_macaron): PositionwiseFeedForward(
          (w_1): Linear(in_features=1024, out_features=4096, bias=True)
          (w_2): Linear(in_features=4096, out_features=1024, bias=True)
          (dropout): Dropout(p=0.1, inplace=False)
          (activation): Swish()
        )
        (norm_ff): LayerNorm((1024,), eps=1e-12, elementwise_affine=True)
        (norm_ff_macaron): LayerNorm((1024,), eps=1e-12, elementwise_affine=True)
        (norm_mha): LayerNorm((1024,), eps=1e-12, elementwise_affine=True)
        (norm_mlp): LayerNorm((1024,), eps=1e-12, elementwise_affine=True)
        (norm_final): LayerNorm((1024,), eps=1e-12, elementwise_affine=True)
        (dropout): Dropout(p=0.1, inplace=False)
        (depthwise_conv_fusion): Conv1d(2048, 2048, kernel_size=(31,), stride=(1,), padding=(15,), groups=2048)
        (merge_proj): Linear(in_features=2048, out_features=1024, bias=True)
      )
      (17): EBranchformerEncoderLayer(
        (attn): MultiHeadedAttention(
          (linear_q): Linear(in_features=1024, out_features=1024, bias=True)
          (linear_k): Linear(in_features=1024, out_features=1024, bias=True)
          (linear_v): Linear(in_features=1024, out_features=1024, bias=True)
          (linear_out): Linear(in_features=1024, out_features=1024, bias=True)
          (dropout): Identity()
          (q_norm): Identity()
          (k_norm): Identity()
        )
        (cgmlp): ConvolutionalGatingMLP(
          (channel_proj1): Sequential(
            (0): Linear(in_features=1024, out_features=4096, bias=True)
            (1): GELU(approximate='none')
          )
          (csgu): ConvolutionalSpatialGatingUnit(
            (norm): LayerNorm((2048,), eps=1e-12, elementwise_affine=True)
            (conv): Conv1d(2048, 2048, kernel_size=(31,), stride=(1,), padding=(15,), groups=2048)
            (act): Identity()
            (dropout): Dropout(p=0.1, inplace=False)
          )
          (channel_proj2): Linear(in_features=2048, out_features=1024, bias=True)
        )
        (feed_forward): PositionwiseFeedForward(
          (w_1): Linear(in_features=1024, out_features=4096, bias=True)
          (w_2): Linear(in_features=4096, out_features=1024, bias=True)
          (dropout): Dropout(p=0.1, inplace=False)
          (activation): Swish()
        )
        (feed_forward_macaron): PositionwiseFeedForward(
          (w_1): Linear(in_features=1024, out_features=4096, bias=True)
          (w_2): Linear(in_features=4096, out_features=1024, bias=True)
          (dropout): Dropout(p=0.1, inplace=False)
          (activation): Swish()
        )
        (norm_ff): LayerNorm((1024,), eps=1e-12, elementwise_affine=True)
        (norm_ff_macaron): LayerNorm((1024,), eps=1e-12, elementwise_affine=True)
        (norm_mha): LayerNorm((1024,), eps=1e-12, elementwise_affine=True)
        (norm_mlp): LayerNorm((1024,), eps=1e-12, elementwise_affine=True)
        (norm_final): LayerNorm((1024,), eps=1e-12, elementwise_affine=True)
        (cross_attn): MultiHeadedAttention(
          (linear_q): Linear(in_features=1024, out_features=1024, bias=True)
          (linear_k): Linear(in_features=1024, out_features=1024, bias=True)
          (linear_v): Linear(in_features=1024, out_features=1024, bias=True)
          (linear_out): Linear(in_features=1024, out_features=1024, bias=True)
          (dropout): Identity()
          (q_norm): Identity()
          (k_norm): Identity()
        )
        (norm_cross_attn): LayerNorm((1024,), eps=1e-12, elementwise_affine=True)
        (dropout): Dropout(p=0.1, inplace=False)
        (depthwise_conv_fusion): Conv1d(2048, 2048, kernel_size=(31,), stride=(1,), padding=(15,), groups=2048)
        (merge_proj): Linear(in_features=2048, out_features=1024, bias=True)
      )
      (18): EBranchformerEncoderLayer(
        (attn): MultiHeadedAttention(
          (linear_q): Linear(in_features=1024, out_features=1024, bias=True)
          (linear_k): Linear(in_features=1024, out_features=1024, bias=True)
          (linear_v): Linear(in_features=1024, out_features=1024, bias=True)
          (linear_out): Linear(in_features=1024, out_features=1024, bias=True)
          (dropout): Identity()
          (q_norm): Identity()
          (k_norm): Identity()
        )
        (cgmlp): ConvolutionalGatingMLP(
          (channel_proj1): Sequential(
            (0): Linear(in_features=1024, out_features=4096, bias=True)
            (1): GELU(approximate='none')
          )
          (csgu): ConvolutionalSpatialGatingUnit(
            (norm): LayerNorm((2048,), eps=1e-12, elementwise_affine=True)
            (conv): Conv1d(2048, 2048, kernel_size=(31,), stride=(1,), padding=(15,), groups=2048)
            (act): Identity()
            (dropout): Dropout(p=0.1, inplace=False)
          )
          (channel_proj2): Linear(in_features=2048, out_features=1024, bias=True)
        )
        (feed_forward): PositionwiseFeedForward(
          (w_1): Linear(in_features=1024, out_features=4096, bias=True)
          (w_2): Linear(in_features=4096, out_features=1024, bias=True)
          (dropout): Dropout(p=0.1, inplace=False)
          (activation): Swish()
        )
        (feed_forward_macaron): PositionwiseFeedForward(
          (w_1): Linear(in_features=1024, out_features=4096, bias=True)
          (w_2): Linear(in_features=4096, out_features=1024, bias=True)
          (dropout): Dropout(p=0.1, inplace=False)
          (activation): Swish()
        )
        (norm_ff): LayerNorm((1024,), eps=1e-12, elementwise_affine=True)
        (norm_ff_macaron): LayerNorm((1024,), eps=1e-12, elementwise_affine=True)
        (norm_mha): LayerNorm((1024,), eps=1e-12, elementwise_affine=True)
        (norm_mlp): LayerNorm((1024,), eps=1e-12, elementwise_affine=True)
        (norm_final): LayerNorm((1024,), eps=1e-12, elementwise_affine=True)
        (dropout): Dropout(p=0.1, inplace=False)
        (depthwise_conv_fusion): Conv1d(2048, 2048, kernel_size=(31,), stride=(1,), padding=(15,), groups=2048)
        (merge_proj): Linear(in_features=2048, out_features=1024, bias=True)
      )
      (19): EBranchformerEncoderLayer(
        (attn): MultiHeadedAttention(
          (linear_q): Linear(in_features=1024, out_features=1024, bias=True)
          (linear_k): Linear(in_features=1024, out_features=1024, bias=True)
          (linear_v): Linear(in_features=1024, out_features=1024, bias=True)
          (linear_out): Linear(in_features=1024, out_features=1024, bias=True)
          (dropout): Identity()
          (q_norm): Identity()
          (k_norm): Identity()
        )
        (cgmlp): ConvolutionalGatingMLP(
          (channel_proj1): Sequential(
            (0): Linear(in_features=1024, out_features=4096, bias=True)
            (1): GELU(approximate='none')
          )
          (csgu): ConvolutionalSpatialGatingUnit(
            (norm): LayerNorm((2048,), eps=1e-12, elementwise_affine=True)
            (conv): Conv1d(2048, 2048, kernel_size=(31,), stride=(1,), padding=(15,), groups=2048)
            (act): Identity()
            (dropout): Dropout(p=0.1, inplace=False)
          )
          (channel_proj2): Linear(in_features=2048, out_features=1024, bias=True)
        )
        (feed_forward): PositionwiseFeedForward(
          (w_1): Linear(in_features=1024, out_features=4096, bias=True)
          (w_2): Linear(in_features=4096, out_features=1024, bias=True)
          (dropout): Dropout(p=0.1, inplace=False)
          (activation): Swish()
        )
        (feed_forward_macaron): PositionwiseFeedForward(
          (w_1): Linear(in_features=1024, out_features=4096, bias=True)
          (w_2): Linear(in_features=4096, out_features=1024, bias=True)
          (dropout): Dropout(p=0.1, inplace=False)
          (activation): Swish()
        )
        (norm_ff): LayerNorm((1024,), eps=1e-12, elementwise_affine=True)
        (norm_ff_macaron): LayerNorm((1024,), eps=1e-12, elementwise_affine=True)
        (norm_mha): LayerNorm((1024,), eps=1e-12, elementwise_affine=True)
        (norm_mlp): LayerNorm((1024,), eps=1e-12, elementwise_affine=True)
        (norm_final): LayerNorm((1024,), eps=1e-12, elementwise_affine=True)
        (dropout): Dropout(p=0.1, inplace=False)
        (depthwise_conv_fusion): Conv1d(2048, 2048, kernel_size=(31,), stride=(1,), padding=(15,), groups=2048)
        (merge_proj): Linear(in_features=2048, out_features=1024, bias=True)
      )
      (20): EBranchformerEncoderLayer(
        (attn): MultiHeadedAttention(
          (linear_q): Linear(in_features=1024, out_features=1024, bias=True)
          (linear_k): Linear(in_features=1024, out_features=1024, bias=True)
          (linear_v): Linear(in_features=1024, out_features=1024, bias=True)
          (linear_out): Linear(in_features=1024, out_features=1024, bias=True)
          (dropout): Identity()
          (q_norm): Identity()
          (k_norm): Identity()
        )
        (cgmlp): ConvolutionalGatingMLP(
          (channel_proj1): Sequential(
            (0): Linear(in_features=1024, out_features=4096, bias=True)
            (1): GELU(approximate='none')
          )
          (csgu): ConvolutionalSpatialGatingUnit(
            (norm): LayerNorm((2048,), eps=1e-12, elementwise_affine=True)
            (conv): Conv1d(2048, 2048, kernel_size=(31,), stride=(1,), padding=(15,), groups=2048)
            (act): Identity()
            (dropout): Dropout(p=0.1, inplace=False)
          )
          (channel_proj2): Linear(in_features=2048, out_features=1024, bias=True)
        )
        (feed_forward): PositionwiseFeedForward(
          (w_1): Linear(in_features=1024, out_features=4096, bias=True)
          (w_2): Linear(in_features=4096, out_features=1024, bias=True)
          (dropout): Dropout(p=0.1, inplace=False)
          (activation): Swish()
        )
        (feed_forward_macaron): PositionwiseFeedForward(
          (w_1): Linear(in_features=1024, out_features=4096, bias=True)
          (w_2): Linear(in_features=4096, out_features=1024, bias=True)
          (dropout): Dropout(p=0.1, inplace=False)
          (activation): Swish()
        )
        (norm_ff): LayerNorm((1024,), eps=1e-12, elementwise_affine=True)
        (norm_ff_macaron): LayerNorm((1024,), eps=1e-12, elementwise_affine=True)
        (norm_mha): LayerNorm((1024,), eps=1e-12, elementwise_affine=True)
        (norm_mlp): LayerNorm((1024,), eps=1e-12, elementwise_affine=True)
        (norm_final): LayerNorm((1024,), eps=1e-12, elementwise_affine=True)
        (cross_attn): MultiHeadedAttention(
          (linear_q): Linear(in_features=1024, out_features=1024, bias=True)
          (linear_k): Linear(in_features=1024, out_features=1024, bias=True)
          (linear_v): Linear(in_features=1024, out_features=1024, bias=True)
          (linear_out): Linear(in_features=1024, out_features=1024, bias=True)
          (dropout): Identity()
          (q_norm): Identity()
          (k_norm): Identity()
        )
        (norm_cross_attn): LayerNorm((1024,), eps=1e-12, elementwise_affine=True)
        (dropout): Dropout(p=0.1, inplace=False)
        (depthwise_conv_fusion): Conv1d(2048, 2048, kernel_size=(31,), stride=(1,), padding=(15,), groups=2048)
        (merge_proj): Linear(in_features=2048, out_features=1024, bias=True)
      )
      (21): EBranchformerEncoderLayer(
        (attn): MultiHeadedAttention(
          (linear_q): Linear(in_features=1024, out_features=1024, bias=True)
          (linear_k): Linear(in_features=1024, out_features=1024, bias=True)
          (linear_v): Linear(in_features=1024, out_features=1024, bias=True)
          (linear_out): Linear(in_features=1024, out_features=1024, bias=True)
          (dropout): Identity()
          (q_norm): Identity()
          (k_norm): Identity()
        )
        (cgmlp): ConvolutionalGatingMLP(
          (channel_proj1): Sequential(
            (0): Linear(in_features=1024, out_features=4096, bias=True)
            (1): GELU(approximate='none')
          )
          (csgu): ConvolutionalSpatialGatingUnit(
            (norm): LayerNorm((2048,), eps=1e-12, elementwise_affine=True)
            (conv): Conv1d(2048, 2048, kernel_size=(31,), stride=(1,), padding=(15,), groups=2048)
            (act): Identity()
            (dropout): Dropout(p=0.1, inplace=False)
          )
          (channel_proj2): Linear(in_features=2048, out_features=1024, bias=True)
        )
        (feed_forward): PositionwiseFeedForward(
          (w_1): Linear(in_features=1024, out_features=4096, bias=True)
          (w_2): Linear(in_features=4096, out_features=1024, bias=True)
          (dropout): Dropout(p=0.1, inplace=False)
          (activation): Swish()
        )
        (feed_forward_macaron): PositionwiseFeedForward(
          (w_1): Linear(in_features=1024, out_features=4096, bias=True)
          (w_2): Linear(in_features=4096, out_features=1024, bias=True)
          (dropout): Dropout(p=0.1, inplace=False)
          (activation): Swish()
        )
        (norm_ff): LayerNorm((1024,), eps=1e-12, elementwise_affine=True)
        (norm_ff_macaron): LayerNorm((1024,), eps=1e-12, elementwise_affine=True)
        (norm_mha): LayerNorm((1024,), eps=1e-12, elementwise_affine=True)
        (norm_mlp): LayerNorm((1024,), eps=1e-12, elementwise_affine=True)
        (norm_final): LayerNorm((1024,), eps=1e-12, elementwise_affine=True)
        (dropout): Dropout(p=0.1, inplace=False)
        (depthwise_conv_fusion): Conv1d(2048, 2048, kernel_size=(31,), stride=(1,), padding=(15,), groups=2048)
        (merge_proj): Linear(in_features=2048, out_features=1024, bias=True)
      )
      (22): EBranchformerEncoderLayer(
        (attn): MultiHeadedAttention(
          (linear_q): Linear(in_features=1024, out_features=1024, bias=True)
          (linear_k): Linear(in_features=1024, out_features=1024, bias=True)
          (linear_v): Linear(in_features=1024, out_features=1024, bias=True)
          (linear_out): Linear(in_features=1024, out_features=1024, bias=True)
          (dropout): Identity()
          (q_norm): Identity()
          (k_norm): Identity()
        )
        (cgmlp): ConvolutionalGatingMLP(
          (channel_proj1): Sequential(
            (0): Linear(in_features=1024, out_features=4096, bias=True)
            (1): GELU(approximate='none')
          )
          (csgu): ConvolutionalSpatialGatingUnit(
            (norm): LayerNorm((2048,), eps=1e-12, elementwise_affine=True)
            (conv): Conv1d(2048, 2048, kernel_size=(31,), stride=(1,), padding=(15,), groups=2048)
            (act): Identity()
            (dropout): Dropout(p=0.1, inplace=False)
          )
          (channel_proj2): Linear(in_features=2048, out_features=1024, bias=True)
        )
        (feed_forward): PositionwiseFeedForward(
          (w_1): Linear(in_features=1024, out_features=4096, bias=True)
          (w_2): Linear(in_features=4096, out_features=1024, bias=True)
          (dropout): Dropout(p=0.1, inplace=False)
          (activation): Swish()
        )
        (feed_forward_macaron): PositionwiseFeedForward(
          (w_1): Linear(in_features=1024, out_features=4096, bias=True)
          (w_2): Linear(in_features=4096, out_features=1024, bias=True)
          (dropout): Dropout(p=0.1, inplace=False)
          (activation): Swish()
        )
        (norm_ff): LayerNorm((1024,), eps=1e-12, elementwise_affine=True)
        (norm_ff_macaron): LayerNorm((1024,), eps=1e-12, elementwise_affine=True)
        (norm_mha): LayerNorm((1024,), eps=1e-12, elementwise_affine=True)
        (norm_mlp): LayerNorm((1024,), eps=1e-12, elementwise_affine=True)
        (norm_final): LayerNorm((1024,), eps=1e-12, elementwise_affine=True)
        (dropout): Dropout(p=0.1, inplace=False)
        (depthwise_conv_fusion): Conv1d(2048, 2048, kernel_size=(31,), stride=(1,), padding=(15,), groups=2048)
        (merge_proj): Linear(in_features=2048, out_features=1024, bias=True)
      )
      (23): EBranchformerEncoderLayer(
        (attn): MultiHeadedAttention(
          (linear_q): Linear(in_features=1024, out_features=1024, bias=True)
          (linear_k): Linear(in_features=1024, out_features=1024, bias=True)
          (linear_v): Linear(in_features=1024, out_features=1024, bias=True)
          (linear_out): Linear(in_features=1024, out_features=1024, bias=True)
          (dropout): Identity()
          (q_norm): Identity()
          (k_norm): Identity()
        )
        (cgmlp): ConvolutionalGatingMLP(
          (channel_proj1): Sequential(
            (0): Linear(in_features=1024, out_features=4096, bias=True)
            (1): GELU(approximate='none')
          )
          (csgu): ConvolutionalSpatialGatingUnit(
            (norm): LayerNorm((2048,), eps=1e-12, elementwise_affine=True)
            (conv): Conv1d(2048, 2048, kernel_size=(31,), stride=(1,), padding=(15,), groups=2048)
            (act): Identity()
            (dropout): Dropout(p=0.1, inplace=False)
          )
          (channel_proj2): Linear(in_features=2048, out_features=1024, bias=True)
        )
        (feed_forward): PositionwiseFeedForward(
          (w_1): Linear(in_features=1024, out_features=4096, bias=True)
          (w_2): Linear(in_features=4096, out_features=1024, bias=True)
          (dropout): Dropout(p=0.1, inplace=False)
          (activation): Swish()
        )
        (feed_forward_macaron): PositionwiseFeedForward(
          (w_1): Linear(in_features=1024, out_features=4096, bias=True)
          (w_2): Linear(in_features=4096, out_features=1024, bias=True)
          (dropout): Dropout(p=0.1, inplace=False)
          (activation): Swish()
        )
        (norm_ff): LayerNorm((1024,), eps=1e-12, elementwise_affine=True)
        (norm_ff_macaron): LayerNorm((1024,), eps=1e-12, elementwise_affine=True)
        (norm_mha): LayerNorm((1024,), eps=1e-12, elementwise_affine=True)
        (norm_mlp): LayerNorm((1024,), eps=1e-12, elementwise_affine=True)
        (norm_final): LayerNorm((1024,), eps=1e-12, elementwise_affine=True)
        (cross_attn): MultiHeadedAttention(
          (linear_q): Linear(in_features=1024, out_features=1024, bias=True)
          (linear_k): Linear(in_features=1024, out_features=1024, bias=True)
          (linear_v): Linear(in_features=1024, out_features=1024, bias=True)
          (linear_out): Linear(in_features=1024, out_features=1024, bias=True)
          (dropout): Identity()
          (q_norm): Identity()
          (k_norm): Identity()
        )
        (norm_cross_attn): LayerNorm((1024,), eps=1e-12, elementwise_affine=True)
        (dropout): Dropout(p=0.1, inplace=False)
        (depthwise_conv_fusion): Conv1d(2048, 2048, kernel_size=(31,), stride=(1,), padding=(15,), groups=2048)
        (merge_proj): Linear(in_features=2048, out_features=1024, bias=True)
      )
      (24): EBranchformerEncoderLayer(
        (attn): MultiHeadedAttention(
          (linear_q): Linear(in_features=1024, out_features=1024, bias=True)
          (linear_k): Linear(in_features=1024, out_features=1024, bias=True)
          (linear_v): Linear(in_features=1024, out_features=1024, bias=True)
          (linear_out): Linear(in_features=1024, out_features=1024, bias=True)
          (dropout): Identity()
          (q_norm): Identity()
          (k_norm): Identity()
        )
        (cgmlp): ConvolutionalGatingMLP(
          (channel_proj1): Sequential(
            (0): Linear(in_features=1024, out_features=4096, bias=True)
            (1): GELU(approximate='none')
          )
          (csgu): ConvolutionalSpatialGatingUnit(
            (norm): LayerNorm((2048,), eps=1e-12, elementwise_affine=True)
            (conv): Conv1d(2048, 2048, kernel_size=(31,), stride=(1,), padding=(15,), groups=2048)
            (act): Identity()
            (dropout): Dropout(p=0.1, inplace=False)
          )
          (channel_proj2): Linear(in_features=2048, out_features=1024, bias=True)
        )
        (feed_forward): PositionwiseFeedForward(
          (w_1): Linear(in_features=1024, out_features=4096, bias=True)
          (w_2): Linear(in_features=4096, out_features=1024, bias=True)
          (dropout): Dropout(p=0.1, inplace=False)
          (activation): Swish()
        )
        (feed_forward_macaron): PositionwiseFeedForward(
          (w_1): Linear(in_features=1024, out_features=4096, bias=True)
          (w_2): Linear(in_features=4096, out_features=1024, bias=True)
          (dropout): Dropout(p=0.1, inplace=False)
          (activation): Swish()
        )
        (norm_ff): LayerNorm((1024,), eps=1e-12, elementwise_affine=True)
        (norm_ff_macaron): LayerNorm((1024,), eps=1e-12, elementwise_affine=True)
        (norm_mha): LayerNorm((1024,), eps=1e-12, elementwise_affine=True)
        (norm_mlp): LayerNorm((1024,), eps=1e-12, elementwise_affine=True)
        (norm_final): LayerNorm((1024,), eps=1e-12, elementwise_affine=True)
        (dropout): Dropout(p=0.1, inplace=False)
        (depthwise_conv_fusion): Conv1d(2048, 2048, kernel_size=(31,), stride=(1,), padding=(15,), groups=2048)
        (merge_proj): Linear(in_features=2048, out_features=1024, bias=True)
      )
      (25): EBranchformerEncoderLayer(
        (attn): MultiHeadedAttention(
          (linear_q): Linear(in_features=1024, out_features=1024, bias=True)
          (linear_k): Linear(in_features=1024, out_features=1024, bias=True)
          (linear_v): Linear(in_features=1024, out_features=1024, bias=True)
          (linear_out): Linear(in_features=1024, out_features=1024, bias=True)
          (dropout): Identity()
          (q_norm): Identity()
          (k_norm): Identity()
        )
        (cgmlp): ConvolutionalGatingMLP(
          (channel_proj1): Sequential(
            (0): Linear(in_features=1024, out_features=4096, bias=True)
            (1): GELU(approximate='none')
          )
          (csgu): ConvolutionalSpatialGatingUnit(
            (norm): LayerNorm((2048,), eps=1e-12, elementwise_affine=True)
            (conv): Conv1d(2048, 2048, kernel_size=(31,), stride=(1,), padding=(15,), groups=2048)
            (act): Identity()
            (dropout): Dropout(p=0.1, inplace=False)
          )
          (channel_proj2): Linear(in_features=2048, out_features=1024, bias=True)
        )
        (feed_forward): PositionwiseFeedForward(
          (w_1): Linear(in_features=1024, out_features=4096, bias=True)
          (w_2): Linear(in_features=4096, out_features=1024, bias=True)
          (dropout): Dropout(p=0.1, inplace=False)
          (activation): Swish()
        )
        (feed_forward_macaron): PositionwiseFeedForward(
          (w_1): Linear(in_features=1024, out_features=4096, bias=True)
          (w_2): Linear(in_features=4096, out_features=1024, bias=True)
          (dropout): Dropout(p=0.1, inplace=False)
          (activation): Swish()
        )
        (norm_ff): LayerNorm((1024,), eps=1e-12, elementwise_affine=True)
        (norm_ff_macaron): LayerNorm((1024,), eps=1e-12, elementwise_affine=True)
        (norm_mha): LayerNorm((1024,), eps=1e-12, elementwise_affine=True)
        (norm_mlp): LayerNorm((1024,), eps=1e-12, elementwise_affine=True)
        (norm_final): LayerNorm((1024,), eps=1e-12, elementwise_affine=True)
        (dropout): Dropout(p=0.1, inplace=False)
        (depthwise_conv_fusion): Conv1d(2048, 2048, kernel_size=(31,), stride=(1,), padding=(15,), groups=2048)
        (merge_proj): Linear(in_features=2048, out_features=1024, bias=True)
      )
      (26): EBranchformerEncoderLayer(
        (attn): MultiHeadedAttention(
          (linear_q): Linear(in_features=1024, out_features=1024, bias=True)
          (linear_k): Linear(in_features=1024, out_features=1024, bias=True)
          (linear_v): Linear(in_features=1024, out_features=1024, bias=True)
          (linear_out): Linear(in_features=1024, out_features=1024, bias=True)
          (dropout): Identity()
          (q_norm): Identity()
          (k_norm): Identity()
        )
        (cgmlp): ConvolutionalGatingMLP(
          (channel_proj1): Sequential(
            (0): Linear(in_features=1024, out_features=4096, bias=True)
            (1): GELU(approximate='none')
          )
          (csgu): ConvolutionalSpatialGatingUnit(
            (norm): LayerNorm((2048,), eps=1e-12, elementwise_affine=True)
            (conv): Conv1d(2048, 2048, kernel_size=(31,), stride=(1,), padding=(15,), groups=2048)
            (act): Identity()
            (dropout): Dropout(p=0.1, inplace=False)
          )
          (channel_proj2): Linear(in_features=2048, out_features=1024, bias=True)
        )
        (feed_forward): PositionwiseFeedForward(
          (w_1): Linear(in_features=1024, out_features=4096, bias=True)
          (w_2): Linear(in_features=4096, out_features=1024, bias=True)
          (dropout): Dropout(p=0.1, inplace=False)
          (activation): Swish()
        )
        (feed_forward_macaron): PositionwiseFeedForward(
          (w_1): Linear(in_features=1024, out_features=4096, bias=True)
          (w_2): Linear(in_features=4096, out_features=1024, bias=True)
          (dropout): Dropout(p=0.1, inplace=False)
          (activation): Swish()
        )
        (norm_ff): LayerNorm((1024,), eps=1e-12, elementwise_affine=True)
        (norm_ff_macaron): LayerNorm((1024,), eps=1e-12, elementwise_affine=True)
        (norm_mha): LayerNorm((1024,), eps=1e-12, elementwise_affine=True)
        (norm_mlp): LayerNorm((1024,), eps=1e-12, elementwise_affine=True)
        (norm_final): LayerNorm((1024,), eps=1e-12, elementwise_affine=True)
        (cross_attn): MultiHeadedAttention(
          (linear_q): Linear(in_features=1024, out_features=1024, bias=True)
          (linear_k): Linear(in_features=1024, out_features=1024, bias=True)
          (linear_v): Linear(in_features=1024, out_features=1024, bias=True)
          (linear_out): Linear(in_features=1024, out_features=1024, bias=True)
          (dropout): Identity()
          (q_norm): Identity()
          (k_norm): Identity()
        )
        (norm_cross_attn): LayerNorm((1024,), eps=1e-12, elementwise_affine=True)
        (dropout): Dropout(p=0.1, inplace=False)
        (depthwise_conv_fusion): Conv1d(2048, 2048, kernel_size=(31,), stride=(1,), padding=(15,), groups=2048)
        (merge_proj): Linear(in_features=2048, out_features=1024, bias=True)
      )
    )
    (after_norm): LayerNorm((1024,), eps=1e-12, elementwise_affine=True)
    (conditioning_layer): Linear(in_features=50002, out_features=1024, bias=True)
  )
  (prompt_encoder): TransformerEncoder(
    (encoders): MultiSequential(
      (0): EncoderLayer(
        (self_attn): MultiHeadedAttention(
          (linear_q): Linear(in_features=512, out_features=512, bias=True)
          (linear_k): Linear(in_features=512, out_features=512, bias=True)
          (linear_v): Linear(in_features=512, out_features=512, bias=True)
          (linear_out): Linear(in_features=512, out_features=512, bias=True)
          (dropout): Identity()
          (q_norm): Identity()
          (k_norm): Identity()
        )
        (feed_forward): PositionwiseFeedForward(
          (w_1): Linear(in_features=512, out_features=2048, bias=True)
          (w_2): Linear(in_features=2048, out_features=512, bias=True)
          (dropout): Dropout(p=0.1, inplace=False)
          (activation): ReLU()
        )
        (norm1): LayerNorm((512,), eps=1e-12, elementwise_affine=True)
        (norm2): LayerNorm((512,), eps=1e-12, elementwise_affine=True)
        (dropout): Dropout(p=0.1, inplace=False)
      )
      (1): EncoderLayer(
        (self_attn): MultiHeadedAttention(
          (linear_q): Linear(in_features=512, out_features=512, bias=True)
          (linear_k): Linear(in_features=512, out_features=512, bias=True)
          (linear_v): Linear(in_features=512, out_features=512, bias=True)
          (linear_out): Linear(in_features=512, out_features=512, bias=True)
          (dropout): Identity()
          (q_norm): Identity()
          (k_norm): Identity()
        )
        (feed_forward): PositionwiseFeedForward(
          (w_1): Linear(in_features=512, out_features=2048, bias=True)
          (w_2): Linear(in_features=2048, out_features=512, bias=True)
          (dropout): Dropout(p=0.1, inplace=False)
          (activation): ReLU()
        )
        (norm1): LayerNorm((512,), eps=1e-12, elementwise_affine=True)
        (norm2): LayerNorm((512,), eps=1e-12, elementwise_affine=True)
        (dropout): Dropout(p=0.1, inplace=False)
      )
      (2): EncoderLayer(
        (self_attn): MultiHeadedAttention(
          (linear_q): Linear(in_features=512, out_features=512, bias=True)
          (linear_k): Linear(in_features=512, out_features=512, bias=True)
          (linear_v): Linear(in_features=512, out_features=512, bias=True)
          (linear_out): Linear(in_features=512, out_features=512, bias=True)
          (dropout): Identity()
          (q_norm): Identity()
          (k_norm): Identity()
        )
        (feed_forward): PositionwiseFeedForward(
          (w_1): Linear(in_features=512, out_features=2048, bias=True)
          (w_2): Linear(in_features=2048, out_features=512, bias=True)
          (dropout): Dropout(p=0.1, inplace=False)
          (activation): ReLU()
        )
        (norm1): LayerNorm((512,), eps=1e-12, elementwise_affine=True)
        (norm2): LayerNorm((512,), eps=1e-12, elementwise_affine=True)
        (dropout): Dropout(p=0.1, inplace=False)
      )
      (3): EncoderLayer(
        (self_attn): MultiHeadedAttention(
          (linear_q): Linear(in_features=512, out_features=512, bias=True)
          (linear_k): Linear(in_features=512, out_features=512, bias=True)
          (linear_v): Linear(in_features=512, out_features=512, bias=True)
          (linear_out): Linear(in_features=512, out_features=512, bias=True)
          (dropout): Identity()
          (q_norm): Identity()
          (k_norm): Identity()
        )
        (feed_forward): PositionwiseFeedForward(
          (w_1): Linear(in_features=512, out_features=2048, bias=True)
          (w_2): Linear(in_features=2048, out_features=512, bias=True)
          (dropout): Dropout(p=0.1, inplace=False)
          (activation): ReLU()
        )
        (norm1): LayerNorm((512,), eps=1e-12, elementwise_affine=True)
        (norm2): LayerNorm((512,), eps=1e-12, elementwise_affine=True)
        (dropout): Dropout(p=0.1, inplace=False)
      )
    )
    (after_norm): LayerNorm((512,), eps=1e-12, elementwise_affine=True)
  )
  (embed): Embedding(50002, 512)
  (pos_enc): PositionalEncoding(
    (dropout): Dropout(p=0.0, inplace=False)
  )
  (embed_proj): Linear(in_features=512, out_features=1024, bias=True)
  (prompt_proj): Linear(in_features=512, out_features=1024, bias=True)
  (ctc): CTC(
    (ctc_lo): Linear(in_features=1024, out_features=50002, bias=True)
    (ctc_loss): CTCLoss()
  )
)

Model summary:
    Class Name: ESPnetS2TCTCModel
    Total Number of model parameters: 1.01 B
    Number of trainable parameters: 1.01 B (100.0%)
    Size: 4.02 GB
    Type: torch.float32
[gpub049] 2025-02-02 16:42:41,487 (abs_task:1427) INFO: Optimizer:
AdamW (
Parameter Group 0
    amsgrad: False
    betas: (0.9, 0.999)
…
