…
pe', '--ngpu', '1', '--multiprocessing_distributed', 'True']' returned non-zero exit status 1.
Traceback (most recent call last):
  File "<frozen runpy>", line 198, in _run_module_as_main
  File "<frozen runpy>", line 88, in _run_code
  File "/work/hdd/bbjs/clin10/bootcamp/espnet/espnet2/bin/launch.py", line 384, in <module>
    main()
  File "/work/hdd/bbjs/clin10/bootcamp/espnet/espnet2/bin/launch.py", line 375, in main
    raise RuntimeError(
RuntimeError: 
################### The last 1000 lines of exp/s2t_owsm_v3.1_lr003_03_raw_en_bpe50000/train.log ###################
          (linear_q): Linear(in_features=1024, out_features=1024, bias=True)
          (linear_k): Linear(in_features=1024, out_features=1024, bias=True)
          (linear_v): Linear(in_features=1024, out_features=1024, bias=True)
          (linear_out): Linear(in_features=1024, out_features=1024, bias=True)
          (dropout): Identity()
          (q_norm): Identity()
          (k_norm): Identity()
        )
        (src_attn): MultiHeadedAttention(
          (linear_q): Linear(in_features=1024, out_features=1024, bias=True)
          (linear_k): Linear(in_features=1024, out_features=1024, bias=True)
          (linear_v): Linear(in_features=1024, out_features=1024, bias=True)
          (linear_out): Linear(in_features=1024, out_features=1024, bias=True)
          (dropout): Identity()
          (q_norm): Identity()
          (k_norm): Identity()
        )
        (feed_forward): PositionwiseFeedForward(
          (w_1): Linear(in_features=1024, out_features=4096, bias=True)
          (w_2): Linear(in_features=4096, out_features=1024, bias=True)
          (dropout): Dropout(p=0.1, inplace=False)
          (activation): ReLU()
        )
        (norm1): LayerNorm((1024,), eps=1e-12, elementwise_affine=True)
        (norm2): LayerNorm((1024,), eps=1e-12, elementwise_affine=True)
        (norm3): LayerNorm((1024,), eps=1e-12, elementwise_affine=True)
        (dropout): Dropout(p=0.1, inplace=False)
      )
      (4): DecoderLayer(
        (self_attn): MultiHeadedAttention(
          (linear_q): Linear(in_features=1024, out_features=1024, bias=True)
          (linear_k): Linear(in_features=1024, out_features=1024, bias=True)
          (linear_v): Linear(in_features=1024, out_features=1024, bias=True)
          (linear_out): Linear(in_features=1024, out_features=1024, bias=True)
          (dropout): Identity()
          (q_norm): Identity()
          (k_norm): Identity()
        )
        (src_attn): MultiHeadedAttention(
          (linear_q): Linear(in_features=1024, out_features=1024, bias=True)
          (linear_k): Linear(in_features=1024, out_features=1024, bias=True)
          (linear_v): Linear(in_features=1024, out_features=1024, bias=True)
          (linear_out): Linear(in_features=1024, out_features=1024, bias=True)
          (dropout): Identity()
          (q_norm): Identity()
          (k_norm): Identity()
        )
        (feed_forward): PositionwiseFeedForward(
          (w_1): Linear(in_features=1024, out_features=4096, bias=True)
          (w_2): Linear(in_features=4096, out_features=1024, bias=True)
          (dropout): Dropout(p=0.1, inplace=False)
          (activation): ReLU()
        )
        (norm1): LayerNorm((1024,), eps=1e-12, elementwise_affine=True)
        (norm2): LayerNorm((1024,), eps=1e-12, elementwise_affine=True)
        (norm3): LayerNorm((1024,), eps=1e-12, elementwise_affine=True)
        (dropout): Dropout(p=0.1, inplace=False)
      )
      (5): DecoderLayer(
        (self_attn): MultiHeadedAttention(
          (linear_q): Linear(in_features=1024, out_features=1024, bias=True)
          (linear_k): Linear(in_features=1024, out_features=1024, bias=True)
          (linear_v): Linear(in_features=1024, out_features=1024, bias=True)
          (linear_out): Linear(in_features=1024, out_features=1024, bias=True)
          (dropout): Identity()
          (q_norm): Identity()
          (k_norm): Identity()
        )
        (src_attn): MultiHeadedAttention(
          (linear_q): Linear(in_features=1024, out_features=1024, bias=True)
          (linear_k): Linear(in_features=1024, out_features=1024, bias=True)
          (linear_v): Linear(in_features=1024, out_features=1024, bias=True)
          (linear_out): Linear(in_features=1024, out_features=1024, bias=True)
          (dropout): Identity()
          (q_norm): Identity()
          (k_norm): Identity()
        )
        (feed_forward): PositionwiseFeedForward(
          (w_1): Linear(in_features=1024, out_features=4096, bias=True)
          (w_2): Linear(in_features=4096, out_features=1024, bias=True)
          (dropout): Dropout(p=0.1, inplace=False)
          (activation): ReLU()
        )
        (norm1): LayerNorm((1024,), eps=1e-12, elementwise_affine=True)
        (norm2): LayerNorm((1024,), eps=1e-12, elementwise_affine=True)
        (norm3): LayerNorm((1024,), eps=1e-12, elementwise_affine=True)
        (dropout): Dropout(p=0.1, inplace=False)
      )
      (6): DecoderLayer(
        (self_attn): MultiHeadedAttention(
          (linear_q): Linear(in_features=1024, out_features=1024, bias=True)
          (linear_k): Linear(in_features=1024, out_features=1024, bias=True)
          (linear_v): Linear(in_features=1024, out_features=1024, bias=True)
          (linear_out): Linear(in_features=1024, out_features=1024, bias=True)
          (dropout): Identity()
          (q_norm): Identity()
          (k_norm): Identity()
        )
        (src_attn): MultiHeadedAttention(
          (linear_q): Linear(in_features=1024, out_features=1024, bias=True)
          (linear_k): Linear(in_features=1024, out_features=1024, bias=True)
          (linear_v): Linear(in_features=1024, out_features=1024, bias=True)
          (linear_out): Linear(in_features=1024, out_features=1024, bias=True)
          (dropout): Identity()
          (q_norm): Identity()
          (k_norm): Identity()
        )
        (feed_forward): PositionwiseFeedForward(
          (w_1): Linear(in_features=1024, out_features=4096, bias=True)
          (w_2): Linear(in_features=4096, out_features=1024, bias=True)
          (dropout): Dropout(p=0.1, inplace=False)
          (activation): ReLU()
        )
        (norm1): LayerNorm((1024,), eps=1e-12, elementwise_affine=True)
        (norm2): LayerNorm((1024,), eps=1e-12, elementwise_affine=True)
        (norm3): LayerNorm((1024,), eps=1e-12, elementwise_affine=True)
        (dropout): Dropout(p=0.1, inplace=False)
      )
      (7): DecoderLayer(
        (self_attn): MultiHeadedAttention(
          (linear_q): Linear(in_features=1024, out_features=1024, bias=True)
          (linear_k): Linear(in_features=1024, out_features=1024, bias=True)
          (linear_v): Linear(in_features=1024, out_features=1024, bias=True)
          (linear_out): Linear(in_features=1024, out_features=1024, bias=True)
          (dropout): Identity()
          (q_norm): Identity()
          (k_norm): Identity()
        )
        (src_attn): MultiHeadedAttention(
          (linear_q): Linear(in_features=1024, out_features=1024, bias=True)
          (linear_k): Linear(in_features=1024, out_features=1024, bias=True)
          (linear_v): Linear(in_features=1024, out_features=1024, bias=True)
          (linear_out): Linear(in_features=1024, out_features=1024, bias=True)
          (dropout): Identity()
          (q_norm): Identity()
          (k_norm): Identity()
        )
        (feed_forward): PositionwiseFeedForward(
          (w_1): Linear(in_features=1024, out_features=4096, bias=True)
          (w_2): Linear(in_features=4096, out_features=1024, bias=True)
          (dropout): Dropout(p=0.1, inplace=False)
          (activation): ReLU()
        )
        (norm1): LayerNorm((1024,), eps=1e-12, elementwise_affine=True)
        (norm2): LayerNorm((1024,), eps=1e-12, elementwise_affine=True)
        (norm3): LayerNorm((1024,), eps=1e-12, elementwise_affine=True)
        (dropout): Dropout(p=0.1, inplace=False)
      )
      (8): DecoderLayer(
        (self_attn): MultiHeadedAttention(
          (linear_q): Linear(in_features=1024, out_features=1024, bias=True)
          (linear_k): Linear(in_features=1024, out_features=1024, bias=True)
          (linear_v): Linear(in_features=1024, out_features=1024, bias=True)
          (linear_out): Linear(in_features=1024, out_features=1024, bias=True)
          (dropout): Identity()
          (q_norm): Identity()
          (k_norm): Identity()
        )
        (src_attn): MultiHeadedAttention(
          (linear_q): Linear(in_features=1024, out_features=1024, bias=True)
          (linear_k): Linear(in_features=1024, out_features=1024, bias=True)
          (linear_v): Linear(in_features=1024, out_features=1024, bias=True)
          (linear_out): Linear(in_features=1024, out_features=1024, bias=True)
          (dropout): Identity()
          (q_norm): Identity()
          (k_norm): Identity()
        )
        (feed_forward): PositionwiseFeedForward(
          (w_1): Linear(in_features=1024, out_features=4096, bias=True)
          (w_2): Linear(in_features=4096, out_features=1024, bias=True)
          (dropout): Dropout(p=0.1, inplace=False)
          (activation): ReLU()
        )
        (norm1): LayerNorm((1024,), eps=1e-12, elementwise_affine=True)
        (norm2): LayerNorm((1024,), eps=1e-12, elementwise_affine=True)
        (norm3): LayerNorm((1024,), eps=1e-12, elementwise_affine=True)
        (dropout): Dropout(p=0.1, inplace=False)
      )
      (9): DecoderLayer(
        (self_attn): MultiHeadedAttention(
          (linear_q): Linear(in_features=1024, out_features=1024, bias=True)
          (linear_k): Linear(in_features=1024, out_features=1024, bias=True)
          (linear_v): Linear(in_features=1024, out_features=1024, bias=True)
          (linear_out): Linear(in_features=1024, out_features=1024, bias=True)
          (dropout): Identity()
          (q_norm): Identity()
          (k_norm): Identity()
        )
        (src_attn): MultiHeadedAttention(
          (linear_q): Linear(in_features=1024, out_features=1024, bias=True)
          (linear_k): Linear(in_features=1024, out_features=1024, bias=True)
          (linear_v): Linear(in_features=1024, out_features=1024, bias=True)
          (linear_out): Linear(in_features=1024, out_features=1024, bias=True)
          (dropout): Identity()
          (q_norm): Identity()
          (k_norm): Identity()
        )
        (feed_forward): PositionwiseFeedForward(
          (w_1): Linear(in_features=1024, out_features=4096, bias=True)
          (w_2): Linear(in_features=4096, out_features=1024, bias=True)
          (dropout): Dropout(p=0.1, inplace=False)
          (activation): ReLU()
        )
        (norm1): LayerNorm((1024,), eps=1e-12, elementwise_affine=True)
        (norm2): LayerNorm((1024,), eps=1e-12, elementwise_affine=True)
        (norm3): LayerNorm((1024,), eps=1e-12, elementwise_affine=True)
        (dropout): Dropout(p=0.1, inplace=False)
      )
      (10): DecoderLayer(
        (self_attn): MultiHeadedAttention(
          (linear_q): Linear(in_features=1024, out_features=1024, bias=True)
          (linear_k): Linear(in_features=1024, out_features=1024, bias=True)
          (linear_v): Linear(in_features=1024, out_features=1024, bias=True)
          (linear_out): Linear(in_features=1024, out_features=1024, bias=True)
          (dropout): Identity()
          (q_norm): Identity()
          (k_norm): Identity()
        )
        (src_attn): MultiHeadedAttention(
          (linear_q): Linear(in_features=1024, out_features=1024, bias=True)
          (linear_k): Linear(in_features=1024, out_features=1024, bias=True)
          (linear_v): Linear(in_features=1024, out_features=1024, bias=True)
          (linear_out): Linear(in_features=1024, out_features=1024, bias=True)
          (dropout): Identity()
          (q_norm): Identity()
          (k_norm): Identity()
        )
        (feed_forward): PositionwiseFeedForward(
          (w_1): Linear(in_features=1024, out_features=4096, bias=True)
          (w_2): Linear(in_features=4096, out_features=1024, bias=True)
          (dropout): Dropout(p=0.1, inplace=False)
          (activation): ReLU()
        )
        (norm1): LayerNorm((1024,), eps=1e-12, elementwise_affine=True)
        (norm2): LayerNorm((1024,), eps=1e-12, elementwise_affine=True)
        (norm3): LayerNorm((1024,), eps=1e-12, elementwise_affine=True)
        (dropout): Dropout(p=0.1, inplace=False)
      )
      (11): DecoderLayer(
        (self_attn): MultiHeadedAttention(
          (linear_q): Linear(in_features=1024, out_features=1024, bias=True)
          (linear_k): Linear(in_features=1024, out_features=1024, bias=True)
          (linear_v): Linear(in_features=1024, out_features=1024, bias=True)
          (linear_out): Linear(in_features=1024, out_features=1024, bias=True)
          (dropout): Identity()
          (q_norm): Identity()
          (k_norm): Identity()
        )
        (src_attn): MultiHeadedAttention(
          (linear_q): Linear(in_features=1024, out_features=1024, bias=True)
          (linear_k): Linear(in_features=1024, out_features=1024, bias=True)
          (linear_v): Linear(in_features=1024, out_features=1024, bias=True)
          (linear_out): Linear(in_features=1024, out_features=1024, bias=True)
          (dropout): Identity()
          (q_norm): Identity()
          (k_norm): Identity()
        )
        (feed_forward): PositionwiseFeedForward(
          (w_1): Linear(in_features=1024, out_features=4096, bias=True)
          (w_2): Linear(in_features=4096, out_features=1024, bias=True)
          (dropout): Dropout(p=0.1, inplace=False)
          (activation): ReLU()
        )
        (norm1): LayerNorm((1024,), eps=1e-12, elementwise_affine=True)
        (norm2): LayerNorm((1024,), eps=1e-12, elementwise_affine=True)
        (norm3): LayerNorm((1024,), eps=1e-12, elementwise_affine=True)
        (dropout): Dropout(p=0.1, inplace=False)
      )
      (12): DecoderLayer(
        (self_attn): MultiHeadedAttention(
          (linear_q): Linear(in_features=1024, out_features=1024, bias=True)
          (linear_k): Linear(in_features=1024, out_features=1024, bias=True)
          (linear_v): Linear(in_features=1024, out_features=1024, bias=True)
          (linear_out): Linear(in_features=1024, out_features=1024, bias=True)
          (dropout): Identity()
          (q_norm): Identity()
          (k_norm): Identity()
        )
        (src_attn): MultiHeadedAttention(
          (linear_q): Linear(in_features=1024, out_features=1024, bias=True)
          (linear_k): Linear(in_features=1024, out_features=1024, bias=True)
          (linear_v): Linear(in_features=1024, out_features=1024, bias=True)
          (linear_out): Linear(in_features=1024, out_features=1024, bias=True)
          (dropout): Identity()
          (q_norm): Identity()
          (k_norm): Identity()
        )
        (feed_forward): PositionwiseFeedForward(
          (w_1): Linear(in_features=1024, out_features=4096, bias=True)
          (w_2): Linear(in_features=4096, out_features=1024, bias=True)
          (dropout): Dropout(p=0.1, inplace=False)
          (activation): ReLU()
        )
        (norm1): LayerNorm((1024,), eps=1e-12, elementwise_affine=True)
        (norm2): LayerNorm((1024,), eps=1e-12, elementwise_affine=True)
        (norm3): LayerNorm((1024,), eps=1e-12, elementwise_affine=True)
        (dropout): Dropout(p=0.1, inplace=False)
      )
      (13): DecoderLayer(
        (self_attn): MultiHeadedAttention(
          (linear_q): Linear(in_features=1024, out_features=1024, bias=True)
          (linear_k): Linear(in_features=1024, out_features=1024, bias=True)
          (linear_v): Linear(in_features=1024, out_features=1024, bias=True)
          (linear_out): Linear(in_features=1024, out_features=1024, bias=True)
          (dropout): Identity()
          (q_norm): Identity()
          (k_norm): Identity()
        )
        (src_attn): MultiHeadedAttention(
          (linear_q): Linear(in_features=1024, out_features=1024, bias=True)
          (linear_k): Linear(in_features=1024, out_features=1024, bias=True)
          (linear_v): Linear(in_features=1024, out_features=1024, bias=True)
          (linear_out): Linear(in_features=1024, out_features=1024, bias=True)
          (dropout): Identity()
          (q_norm): Identity()
          (k_norm): Identity()
        )
        (feed_forward): PositionwiseFeedForward(
          (w_1): Linear(in_features=1024, out_features=4096, bias=True)
          (w_2): Linear(in_features=4096, out_features=1024, bias=True)
          (dropout): Dropout(p=0.1, inplace=False)
          (activation): ReLU()
        )
        (norm1): LayerNorm((1024,), eps=1e-12, elementwise_affine=True)
        (norm2): LayerNorm((1024,), eps=1e-12, elementwise_affine=True)
        (norm3): LayerNorm((1024,), eps=1e-12, elementwise_affine=True)
        (dropout): Dropout(p=0.1, inplace=False)
      )
      (14): DecoderLayer(
        (self_attn): MultiHeadedAttention(
          (linear_q): Linear(in_features=1024, out_features=1024, bias=True)
          (linear_k): Linear(in_features=1024, out_features=1024, bias=True)
          (linear_v): Linear(in_features=1024, out_features=1024, bias=True)
          (linear_out): Linear(in_features=1024, out_features=1024, bias=True)
          (dropout): Identity()
          (q_norm): Identity()
          (k_norm): Identity()
        )
        (src_attn): MultiHeadedAttention(
          (linear_q): Linear(in_features=1024, out_features=1024, bias=True)
          (linear_k): Linear(in_features=1024, out_features=1024, bias=True)
          (linear_v): Linear(in_features=1024, out_features=1024, bias=True)
          (linear_out): Linear(in_features=1024, out_features=1024, bias=True)
          (dropout): Identity()
          (q_norm): Identity()
          (k_norm): Identity()
        )
        (feed_forward): PositionwiseFeedForward(
          (w_1): Linear(in_features=1024, out_features=4096, bias=True)
          (w_2): Linear(in_features=4096, out_features=1024, bias=True)
          (dropout): Dropout(p=0.1, inplace=False)
          (activation): ReLU()
        )
        (norm1): LayerNorm((1024,), eps=1e-12, elementwise_affine=True)
        (norm2): LayerNorm((1024,), eps=1e-12, elementwise_affine=True)
        (norm3): LayerNorm((1024,), eps=1e-12, elementwise_affine=True)
        (dropout): Dropout(p=0.1, inplace=False)
      )
      (15): DecoderLayer(
        (self_attn): MultiHeadedAttention(
          (linear_q): Linear(in_features=1024, out_features=1024, bias=True)
          (linear_k): Linear(in_features=1024, out_features=1024, bias=True)
          (linear_v): Linear(in_features=1024, out_features=1024, bias=True)
          (linear_out): Linear(in_features=1024, out_features=1024, bias=True)
          (dropout): Identity()
          (q_norm): Identity()
          (k_norm): Identity()
        )
        (src_attn): MultiHeadedAttention(
          (linear_q): Linear(in_features=1024, out_features=1024, bias=True)
          (linear_k): Linear(in_features=1024, out_features=1024, bias=True)
          (linear_v): Linear(in_features=1024, out_features=1024, bias=True)
          (linear_out): Linear(in_features=1024, out_features=1024, bias=True)
          (dropout): Identity()
          (q_norm): Identity()
          (k_norm): Identity()
        )
        (feed_forward): PositionwiseFeedForward(
          (w_1): Linear(in_features=1024, out_features=4096, bias=True)
          (w_2): Linear(in_features=4096, out_features=1024, bias=True)
          (dropout): Dropout(p=0.1, inplace=False)
          (activation): ReLU()
        )
        (norm1): LayerNorm((1024,), eps=1e-12, elementwise_affine=True)
        (norm2): LayerNorm((1024,), eps=1e-12, elementwise_affine=True)
        (norm3): LayerNorm((1024,), eps=1e-12, elementwise_affine=True)
        (dropout): Dropout(p=0.1, inplace=False)
      )
      (16): DecoderLayer(
        (self_attn): MultiHeadedAttention(
          (linear_q): Linear(in_features=1024, out_features=1024, bias=True)
          (linear_k): Linear(in_features=1024, out_features=1024, bias=True)
          (linear_v): Linear(in_features=1024, out_features=1024, bias=True)
          (linear_out): Linear(in_features=1024, out_features=1024, bias=True)
          (dropout): Identity()
          (q_norm): Identity()
          (k_norm): Identity()
        )
        (src_attn): MultiHeadedAttention(
          (linear_q): Linear(in_features=1024, out_features=1024, bias=True)
          (linear_k): Linear(in_features=1024, out_features=1024, bias=True)
          (linear_v): Linear(in_features=1024, out_features=1024, bias=True)
          (linear_out): Linear(in_features=1024, out_features=1024, bias=True)
          (dropout): Identity()
          (q_norm): Identity()
          (k_norm): Identity()
        )
        (feed_forward): PositionwiseFeedForward(
          (w_1): Linear(in_features=1024, out_features=4096, bias=True)
          (w_2): Linear(in_features=4096, out_features=1024, bias=True)
          (dropout): Dropout(p=0.1, inplace=False)
          (activation): ReLU()
        )
        (norm1): LayerNorm((1024,), eps=1e-12, elementwise_affine=True)
        (norm2): LayerNorm((1024,), eps=1e-12, elementwise_affine=True)
        (norm3): LayerNorm((1024,), eps=1e-12, elementwise_affine=True)
        (dropout): Dropout(p=0.1, inplace=False)
      )
      (17): DecoderLayer(
        (self_attn): MultiHeadedAttention(
          (linear_q): Linear(in_features=1024, out_features=1024, bias=True)
          (linear_k): Linear(in_features=1024, out_features=1024, bias=True)
          (linear_v): Linear(in_features=1024, out_features=1024, bias=True)
          (linear_out): Linear(in_features=1024, out_features=1024, bias=True)
          (dropout): Identity()
          (q_norm): Identity()
          (k_norm): Identity()
        )
        (src_attn): MultiHeadedAttention(
          (linear_q): Linear(in_features=1024, out_features=1024, bias=True)
          (linear_k): Linear(in_features=1024, out_features=1024, bias=True)
          (linear_v): Linear(in_features=1024, out_features=1024, bias=True)
          (linear_out): Linear(in_features=1024, out_features=1024, bias=True)
          (dropout): Identity()
          (q_norm): Identity()
          (k_norm): Identity()
        )
        (feed_forward): PositionwiseFeedForward(
          (w_1): Linear(in_features=1024, out_features=4096, bias=True)
          (w_2): Linear(in_features=4096, out_features=1024, bias=True)
          (dropout): Dropout(p=0.1, inplace=False)
          (activation): ReLU()
        )
        (norm1): LayerNorm((1024,), eps=1e-12, elementwise_affine=True)
        (norm2): LayerNorm((1024,), eps=1e-12, elementwise_affine=True)
        (norm3): LayerNorm((1024,), eps=1e-12, elementwise_affine=True)
        (dropout): Dropout(p=0.1, inplace=False)
      )
    )
  )
  (criterion_att): LabelSmoothingLoss(
    (criterion): KLDivLoss()
  )
  (ctc): CTC(
    (ctc_lo): Linear(in_features=1024, out_features=50002, bias=True)
    (ctc_loss): CTCLoss()
  )
)

Model summary:
    Class Name: ESPnetS2TModel
    Total Number of model parameters: 1.02 B
    Number of trainable parameters: 1.02 B (100.0%)
    Size: 4.07 GB
    Type: torch.float32
[gpub049] 2025-02-02 01:01:08,095 (abs_task:1427) INFO: Optimizer:
AdamW (
Parameter Group 0
    amsgrad: False
    betas: (0.9, 0.999)
…
